pytorch/Task2/Task2_NetWork/model.ckpt (torch_old, 141356 bytes, 14 tensors)

conv1.0.weight f4 [16, 3, 5, 5]
0.07080911 0.13741586 0.104090735 0.024020912 0.0013727744 0.094781674 0.06873108 0.035378173
0.003953065 -0.09507602 -0.09168755 -0.15769485 -0.14921308 -0.014489123 -0.09812583 -0.06395516
-0.12691909 -0.073333524 -0.08311216 -0.13954009 0.05832743 -0.05438875 -0.04928081 -0.07939124
0.032849535 0.0044113 -0.060641006 -0.12314874 -0.0698957 -0.064466864 -0.08663754 0.1012989
-0.047564402 0.14664543 0.13975725 0.0946515 0.110256985 0.03916228 0.011363005 -0.061685186
-0.09618794 0.09195487 -0.095031165 -0.10631172 -0.08631257 -0.0074821734 -0.066082634 -0.039993737
0.111442514 -0.012355895 -0.105244294 -0.062292356 -0.03431024 -0.08113691 -0.058376566 -0.085141614
-0.0035356067 0.033150073 -0.0043200855 0.08589124 -0.049165096 -0.008154374 0.005591525 -0.022613958
0.114408135 -0.007405917 0.08144124 0.104820736 0.12729537 0.071866244 0.043174054 0.14352374
0.10848947 0.039900504 0.07246671 0.032303672 0.010396733 -0.0163372 0.09799804 -0.017884219
-0.04521617 -0.0798019 -0.1743628 -0.01686539 0.13301338 0.027628541 0.08511863 -0.039613664
-0.027540637 0.010564323 -0.020576715 -0.04002248 0.1110129 -0.08989532 -0.029909752 0.074642256
-0.10319947 0.11358617 0.07304095 -0.039042942 -0.053030748 0.021892462 -0.033315085 0.0057158326
0.019281115 0.12632495 0.01679314 -0.18302341 0.066765815 0.094105825 0.031694323 0.13283245
-0.097943075 -0.17147912 0.07750362 -0.1464257 0.12094113 0.12581113 -0.044619475 -0.08156995
-0.000552766 -0.12524983 -0.0637073 0.13824403 -0.09496717 -0.08930314 -0.1418066 0.08608248
0.019631792 0.04124197 0.101328366 0.060480833 -0.10478853 -0.06040465 0.019398367 -0.013411337
0.12891883 0.046826918 -0.19378749 -0.057225298 -0.006745635 0.045961145 0.13901286 -0.003553413
-0.06470376 -0.036256988 -0.10900604 0.14688455 0.037612397 0.0042434847 0.08187539 0.026972918
0.017975563 0.07278825 0.013626052 0.08537765 0.14075659 0.0094175 -0.02873871 0.044080872
0.11226381 0.0726331 -0.036834467 -0.004656902 0.04214965 0.106687516 0.09788058 0.0641889
-0.096760854 0.014391412 0.030721312 -0.07393579 0.050992224 0.05184184 0.12493054 -0.013717753
0.038440023 0.015513398 0.07177136 -0.03889917 -0.0757076 -0.06623901 0.047939617 -0.13991089
-0.17167217 -0.04836856 -0.094641864 -0.13002197 -0.08799754 -0.15669963 -0.10629022 -0.011651372
-0.20167278 0.019640382 -0.01959288 -0.11502085 -0.19772072 -0.082558855 -0.14143756 0.0736232
-0.11298039 -0.0239019 0.030546231 0.089672096 0.06850416 0.011617755 0.030779429 0.09518895
0.021960517 -0.084904574 0.057061452 0.06991505 0.09357284 0.003248869 0.0110195195 0.083692685
0.0223494 0.02483153 0.018030297 -0.11110338 0.059097838 0.07094049 -0.089641586 -0.057515815
-0.08775262 -0.07239711 -0.11429347 0.02728703 -0.08314718 0.06428187 -0.092238545 0.008703628
-0.08781407 -0.078414075 -0.09232408 0.0053349845 -0.073049575 0.022204708 -0.17715038 -0.12532544
0.0057308828 -0.049749292 -0.010207584 0.0103828 -0.07380376 0.024573307 -0.039061192 0.0151030645
0.041903056 -0.10958394 -0.110014096 0.029674897 -0.038717724 -0.013738093 -0.023660632 0.04472971
00000000: 5e04 913d beb6 0c3e 862d d53d 81c7 c43c
00000010: aaee b33a e51c c23d e1c2 8c3d b4e8 103d
00000020: b688 813b 37b7 c2bd afc6 bbbd c27a 21be
00000030: 50cb 18be c963 6dbc 32f6 c8bd ecfa 82bd
00000040: 14f7 01be e32f 96bd b536 aabd 99e3 0ebe
00000050: bee8 6e3d bdc6 5ebd adda 49bd e097 a2bd
00000060: 3c8d 063d ab8c 903b b462 78bd 6835 fcbd
00000070: 7a25 8fbd 3407 84bd 066f b1bd cc75 cf3d
00000080: e4d2 42bd 382a 163e 861c 0f3e a5d8 c13d
00000090: 6ace e13d a068 203d e62b 3a3c 9ba9 7cbd
000000a0: 2ffe c4bd d652 bc3d b39f c2bd f6b9 d9bd
000000b0: a5c4 b0bd 052d f5bb 5556 87bd 79d0 23bd
000000c0: f93b e43d 6170 4abc 528a d7bd 4526 7fbd
000000d0: e588 0cbd 1c2b a6bd 441c 6fbd ba5e aebd
000000e0: a3b5 67bb 5fc8 073d 818f 8dbb bfe7 af3d
000000f0: 5761 49bd ec99 05bc 1d39 b73b e840 b9bc
00000100: d04e ea3d 56ad f2bb aaca a63d 41ac d63d
00000110: b859 023e 9c2e 933d 47d7 303d e3f7 123e
00000120: ba2f de3d b66e 233d 6d69 943d db50 043d
00000130: 0f57 2a3c 97d5 85bc 32b3 c83d ed81 92bc
00000140: 9734 39bd 2e6f a3bd 298c 32be 4929 8abc
00000150: a934 083e 4055 e23c ad52 ae3d f041 22bd
00000160: e79c e1bc fb15 2d3c 8090 a8bc 9dee 23bd
00000170: bb5a e33d 0a1b b8bd 4c05 f5bc 0ade 983d
00000180: 3e5a d3bd de9f e83d 7e96 953d 7eeb 1fbd
00000190: c536 59bd d257 b33c 6675 08bd e14b bb3b
000001a0: 6ef3 9d3c 545b 013e c491 893c 7d6a 3bbe
000001b0: 84bc 883d 8eba c03d e8d1 013d 3b05 083e
000001c0: 6196 c8bd 3998 2fbe 38ba 9e3d 9ef0 15be
000001d0: fcaf f73d a2d4 003e e9c2 36bd 250e a7bd
000001e0: 80e7 10ba 7e41 00be f978 82bd d88f 0d3e
000001f0: 267e c2bd 91e4 b6bd c035 11be 034c b03d
00000200: dad2 a03c 57ed 283d 3f85 cf3d c0ba 773d
00000210: 5e9b d6bd de6a 77bd 53e9 9e3c 39bb 5bbc
00000220: 4c03 043e 95cd 3f3d 3a70 46be 1365 6abd
00000230: 7d0a ddbb c141 3c3d 6359 0e3e 61e0 68bb
00000240: 6883 84bd 3582 14bd 8f3e dfbd e768 163e
00000250: 750f 1a3d ee0c 8b3b 49ae a73d 4ff6 dc3c
00000260: 7d41 933c 0212 953d ce3f 5f3c 7ada ae3d
00000270: 7f22 103e dc4b 1a3c 716d ebbc 258e 343d
00000280: 92ea e53d aac0 943d bddf 16bd ed98 98bb
00000290: 1da5 2c3d fc7e da3d 9d75 c83d 7875 833d
000002a0: 8e2a c6bd f5c9 6b3c 43ab fb3c a66b 97bd
000002b0: 39dd 503d 1c58 543d 95db ff3d 6dc0 60bc
000002c0: 4973 1d3d e82b 7e3c ddfc 923d bc54 1fbd
000002d0: 960c 9bbd 51a8 87bd 555c 443d cd44 0fbe
000002e0: d4ca 2fbe 1c1e 46bd 98d3 c1bd 7b24 05be
000002f0: 0e38 b4bd de75 20be b0ae d9bd 65e5 3ebc
00000300: 4f83 4ebe dee4 a03c 3f81 a0bc 0d90 ebbd
00000310: 4d77 4abe 9e14 a9bd 02d5 10be c3c7 963d
00000320: 4362 e7bd ebcd c3bc 173c fa3c 01a6 b73d
00000330: e94b 8c3d 6558 3e3c 2425 fc3c 6df2 c23d
00000340: 8be6 b33c 73e2 adbd 45b9 693d 9f2f 8f3d
00000350: 1ea3 bf3d faea 543b 378b 343c 1267 ab3d
00000360: 1716 b73c 7e6b cb3c 46b4 933c 2b8a e3bd
00000370: 9310 723d 3f49 913d 0296 b7bd b495 6bbd
00000380: a5b7 b3bd f044 94bd b212 eabd 0d89 df3c
00000390: 1249 aabd 37a6 833d 90e7 bcbd a999 0e3c
000003a0: ddd7 b3bd 8f97 a0bd 6814 bdbd 18d1 ae3b
000003b0: 049b 95bd a6e6 b53c e966 35be 5055 00be
000003c0: 21ca bb3b eac5 4bbd b63d 27bc 9f1c 2a3c
000003d0: 6d26 97bd f64d c93c a1fe 1fbd d872 773c
000003e0: 8aa2 2b3d 8b6d e0bd 124f e1bd c518 f33c
000003f0: 7a96 1ebd bd15 61bc f1d3 c1bc 8036 373d

conv1.0.bias f4 [16]
0.17914914 -0.060251273 0.073737875 -0.016094457 -0.08546061 0.12827632 -0.07180424 -0.023902237
-0.017923435 0.09561654 -0.08193999 -0.04961412 0.1249808 -0.07278098 -0.12138871 0.17149673
00000000: df72 373e 0aca 76bd e203 973d 86d8 83bc
00000010: f905 afbd de5a 033e 1a0e 93bd a0ce c3bc
00000020: 2bd4 92bc 9bd2 c33d 27d0 a7bd 2d38 4bbd
00000030: eff5 ff3d 320e 95bd a59a f8bd d79c 2f3e

conv1.1.weight f4 [16]
0.46838853 0.8573229 0.64177924 0.19139278 0.34493327 0.6767569 0.5418722 0.33330253
0.5149464 0.26914173 0.102955624 0.4523485 0.5660196 0.21848325 0.37249792 0.6510166
00000000: 9fd0 ef3e 8379 5b3f a54b 243f 78fc 433e
00000010: 189b b03e f13f 2d3f 23b8 0a3f a1a6 aa3e
00000020: 87d3 033f f2cc 893e 66da d23d 399a e73e
00000030: a9e6 103f 13ba 5f3e 0cb8 be3e 06a9 263f

conv1.1.bias f4 [16]
0.09275328 -0.06675764 -0.12252521 0.0390404 -0.084346525 -0.15699515 -0.09481962 -0.09260682
-0.11361876 -0.066827804 -0.05326275 -0.032411274 -0.07609123 -0.07225674 -0.109640464 -0.07889174
00000000: 6ff5 bd3d 3bb8 88bd 7fee fabd d4e8 1f3d
00000010: dfbd acbd 56c3 20be ca30 c2bd a5a8 bdbd
00000020: f4b0 e8bd 04dd 88bd 0b2a 5abd afc1 04bd
00000030: b8d5 9bbd 57fb 93bd 2e8b e0bd fe91 a1bd

conv1.1.running_mean f4 [16]
0.07731997 -0.09266195 -0.030741429 -0.044848543 -1.3985593 0.09740455 -0.08120674 -0.06465092
0.4007442 -0.013421229 0.7246731 -0.02089278 0.13696091 0.40360537 -0.21428327 0.18023142
00000000: ef59 9e3d 8cc5 bdbd 73d5 fbbc 1bb3 37bd
00000010: fe03 b3bf 097c c73d b84f a6bd b467 84bd
00000020: 582e cd3e b7e4 5bbc 2d84 393f 5627 abbc
00000030: 7b3f 0c3e 5da5 ce3e 136d 5bbe 968e 383e

conv1.1.running_var f4 [16]
0.017398294 0.0068100505 0.030847618 0.064421296 0.6035864 0.04780122 0.026123948 0.05056574
0.12071883 0.11694195 0.34265438 0.13071348 0.09310606 0.17596821 0.025250431 0.008519119
00000000: de86 8e3c d826 df3b 25b4 fc3c 50ef 833d
00000010: a384 1a3f 36cb 433d e401 d63c 051e 4f3d
00000020: 6f3b f73d 437f ef3d 6570 af3e c1d9 053e
00000030: 64ae be3d 0331 343e fed9 ce3c c693 0b3c

conv2.0.weight f4 [32, 16, 5, 5]
0.05999637 0.0050050425 -0.020688733 0.0342316 0.0378375 -0.0042353906 0.029519476 0.01836224
0.025619471 0.034593623 0.046693094 -0.050748713 -0.027670784 -0.020865154 -0.006226294 -0.013552321
-0.040156264 -0.007772871 -0.060741913 -0.06077905 -0.04511643 -0.07116396 -0.029279636 0.02026472
-0.008274628 0.06794351 -0.033345427 0.100169405 0.03816222 -0.0052587283 0.053324353 0.051833045
0.09200222 0.02363498 0.009148019 -0.009785604 0.10827883 0.025478693 -0.083085865 -0.03960111
-0.03386672 0.073547445 -0.013203582 0.009137546 -0.0017242697 -0.044250347 0.074471325 -0.045650925
0.062116068 0.08773121 -0.026318774 -0.0018738108 0.055539913 0.019189775 0.0027501693 0.0012448668
-0.0077480613 -0.00089699484 -0.0068097995 -0.034728624 -0.0031938786 -0.01352727 0.0017699277 0.057377897
0.06280988 0.06261097 0.011476303 -0.028865816 0.052072577 -0.020553527 0.04199165 0.017772488
0.06549179 0.05292004 -0.005130111 -0.002692854 0.09184796 0.055595033 0.009560641 0.03657209
-0.030701535 -0.022905536 0.04566789 -0.025237693 0.030176757 -0.018985415 0.0031123648 -0.00644697
0.029611683 0.019123798 0.027009394 -0.010331346 0.0046701008 0.04929967 0.0036396177 -0.009165537
-0.018918298 0.021312224 -0.0014913991 0.034391567 0.027817016 -0.07251514 -0.065774076 -0.046912342
0.016041124 0.02487507 -0.025924318 -0.10117432 -0.08490596 -0.10944159 0.043604046 -0.050432883
-0.079131916 -0.14856309 -0.1120376 0.01721427 0.0024262976 -0.081900485 -0.030921256 0.011115648
0.07328445 -0.03198445 -0.092725605 -0.02728422 0.04162183 0.054685347 0.12071156 0.011285916
0.114630096 0.08674746 -0.012763931 0.005186496 -0.09801048 0.05682071 0.0919898 -0.008413698
0.016087435 -0.018538928 -0.019098008 -0.027359359 -0.039538227 -0.022743866 0.058083206 -0.038863372
-0.04220845 0.014284138 -0.06310548 0.115441225 -0.010873867 0.058357913 0.027555028 0.17500256
0.057204045 0.21825615 0.09821403 0.08714063 0.051030975 0.036861815 0.16980734 0.10026779
0.094524786 0.033727385 -0.0056063305 0.09629369 0.0545937 0.110044725 -0.04777565 0.09719642
0.0017133211 0.09180861 0.09729475 0.037925627 0.13465378 -0.01884986 0.053144988 0.042064134
0.027848598 -0.021642065 -0.026978279 0.041144297 0.089108594 0.023348927 0.07045163 0.06160155
0.05343584 0.015131975 -0.015840609 -0.0005761804 -0.011755208 0.0131417345 0.06632535 0.00613261
0.015487001 0.006536728 0.081287295 -0.055603202 0.0074749882 -0.051651455 0.056702133 0.064963154
-0.11522905 -0.13646033 -0.11536447 -0.042752482 -0.056358382 -0.15760322 -0.039520703 -0.15922058
-0.070367336 -0.044635586 -0.12640597 -0.10673436 -0.082138054 -0.0811118 -0.05465512 -0.12906854
-0.12105085 -0.027895397 -0.028460655 -0.012929481 -0.08270947 -0.07845099 -0.10706269 -0.108466774
0.008937861 -0.010149042 0.036661327 -0.036629625 0.014234516 0.015709618 -0.039100263 -0.02013177
-0.023971107 -0.093251966 -0.09582676 -0.09502141 -0.108690865 -0.035148744 -0.039523337 -0.018555138
-0.06998643 -0.03708751 -0.006382249 0.030905752 -0.02723235 -0.07454259 -0.080030754 0.021777477
0.089933 0.03926253 -0.010577487 0.030355645 -0.05181145 -0.013171943 -0.056963153 -0.0060201082
00000000: c1be 753d 5701 a43b 6b7b a9bc 6f36 0c3d
00000010: 7ffb 1a3d 08c9 8abb d4d2 f13c 696c 963c
00000020: eddf d13c 0bb2 0d3d 4241 3f3d e2dd 4fbd
00000030: d7ad e2bc 66ed aabc f105 ccbb 8e0a 5ebc
00000040: e57a 24bd 91b3 febb 83cc 78bd 74f3 78bd
00000050: 01cc 38bd 69be 91bd d9db efbc 3302 a63c
00000060: 4e92 07bc f825 8b3d 3795 08bd 9e25 cd3d
00000070: fd4f 1c3d 6951 acbb a36a 5a3d e34e 543d
00000080: a96b bc3d 259e c13c 93e1 153c cc53 20bc
00000090: 4bc1 dd3d b1b8 d03c ec28 aabd c634 22bd
000000a0: d4b7 0abd 0ba0 963d d653 58bc a5b5 153c
000000b0: e400 e2ba da3f 35bd 6c84 983d 77fc 3abd
000000c0: 6b6d 7e3d 6cac b33d 789a d7bc a89a f5ba
000000d0: d27d 633d e033 9d3c 2f3c 343b cc2a a33a
000000e0: 73e3 fdbb 4e24 6bba bd24 dfbb 9a3f 0ebd
000000f0: 6450 51bb 7ca1 5dbc ebfc e73a 1605 6b3d
00000100: 77a2 803d 2e3a 803d 1b07 3c3c 0178 ecbc
00000110: 0e4a 553d df5f a8bc 70ff 2b3d 9c97 913c
00000120: 8f20 863d afc2 583d 7d1a a8bb 987a 30bb
00000130: c91a bc3d 9eb7 633d 3ca4 1c3c 9ecc 153d
00000140: c981 fbbc 64a4 bbbc 410e 3b3d 47bf cebc
00000150: 3f35 f73c 4d87 9bbc d1f8 4b3b 1b41 d3bb
00000160: 3394 f23c 83a9 9c3c ce42 dd3c ce44 29bc
00000170: a507 993b 73ee 493d a786 6e3b 0c2b 16bc
00000180: 8cfa 9abc f996 ae3c 0d7b c3ba 2cde 0c3d
00000190: 83e0 e33c d182 94bd 8fb4 86bd 2827 40bd
000001a0: ad68 833c cec6 cb3c 3c5f d4bc 7b34 cfbd
000001b0: 2de3 adbd ea22 e0bd 289a 323d b692 4ebd
000001c0: ea0f a2bd ec20 18be f873 e5bd f104 8d3c
000001d0: 8502 1f3b 71bb a7bd 934e fdbc 681e 363c
000001e0: 2816 963d 2002 03bd ece6 bdbd 2883 dfbc
000001f0: a77b 2a3d befd 5f3d 9f37 f73d 90e8 383c
00000200: 2fc3 ea3d a7a8 b13d cf1f 51bc 7bf3 a93b
00000210: b8b9 c8bd d5bc 683d 2665 bc3d 9bd9 09bc
00000220: ccc9 833c f3de 97bc 6d73 9cbc bc20 e0bc
00000230: d6f2 21bd 5851 babc a8e8 6d3d 332f 1fbd
00000240: c5e2 2cbd 0408 6a3c 723d 81bd 736c ec3d
00000250: 4e28 32bc b508 6f3d 15bb e13c df33 333e
00000260: ca4e 6a3d 8a7e 5f3e 7024 c93d c976 b23d
00000270: db05 513d 6afc 163d fae1 2d3e 3359 cd3d
00000280: 3696 c13d ba25 0a3d 4fb5 b7bb a035 c53d
00000290: a59d 5f3d 215f e13d 66b0 43bd eb0e c73d
000002a0: 8491 e03a 2706 bc3d 7842 c73d e757 1b3d
000002b0: aee2 093e 066b 9abc 8fae 593d 714b 2c3d
000002c0: be22 e43c b34a b1bc 8d01 ddbc ec86 283d
000002d0: 917e b63d 4046 bf3c f248 903d e851 7c3d
000002e0: 8adf 5a3d 1aec 773c 2ac4 81bc d00a 17ba
000002f0: ea98 40bc 6e50 573c 96d5 873d 10f4 c83b
00000300: 31bd 7d3c 0c32 d63b f479 a63d 2fc0 63bd
00000310: bff0 f43b 7a90 53bd 7f40 683d 670b 853d
00000320: 35fd ebbd 42bc 0bbe 3544 ecbd 3a1d 2fbd
00000330: 0cd8 66bd bd62 21be 76e0 21bd b80a 23be
00000340: c01c 90bd ced3 36bd 9170 01be 8b97 dabd
00000350: ff37 a8bd f21d a6bd 0cde 5fbd 8b2a 04be
00000360: 82e9 f7bd e384 e4bc 5226 e9bc 2dd6 53bc
00000370: 9563 a9bd eaaa a0bd af43 dbbd d423 debd
00000380: 1b70 123c 2b48 26bc 302a 163d f208 16bd
00000390: e337 693c 75b1 803c 9927 20bd 62eb a4bc
000003a0: 0e5f c4bc e3fa bebd d240 c4bd 969a c2bd
000003b0: 5199 debd 21f8 0fbd 39e3 21bd f200 98bc
000003c0: 0c55 8fbd 13e9 17bd 2f22 d1bb 0f2e fd3c
000003d0: 6116 dfbc c9a9 98bd 2ae7 a3bd ae66 b23c
000003e0: cb2e b83d bfd1 203d 324d 2dbc 67ac f83c
000003f0: 3e38 54bd 22cf 57bc 3252 69bd 5444 c5bb

conv2.0.bias f4 [32]
-0.010931616 0.06019797 -0.06725311 -0.025556853 -0.00625816 0.046326496 0.07405883 -0.034744453
-0.047128215 0.02149829 -0.049934156 0.08269302 0.0027875083 0.03958227 0.018589647 -0.04770065
0.0070650126 0.021232445 0.038017083 0.05808013 0.0024372665 -0.0036699215 0.048854977 0.049895264
-0.0740894 0.060231388 -0.04814771 0.021947049 -0.018602353 0.0146690905 0.034017928 0.014751523
00000000: 851a 33bc 2692 763d 00bc 89bd 9b5c d1bc
00000010: 4011 cdbb dac0 3d3d 28ac 973d 3350 0ebd
00000020: 8409 41bd 2f1d b03c c287 4cbd f55a a93d
00000030: a1ae 363b 0521 223d 5149 983c c261 43bd
00000040: 9f81 e73b aaef ad3c cdb7 1b3d 6ee5 6d3d
00000050: 8cba 1f3b 1183 70bb 281c 483d fa5e 4c3d
00000060: 2fbc 97bd 30b5 763d 8836 45bd 4cca b33c
00000070: f663 98bc a056 703c 6256 0b3d 5fb0 713c

conv2.1.weight f4 [32]
0.42456418 0.6684975 0.1850322 0.40848204 0.3239429 0.22948681 0.5389704 0.25366366
0.26646775 0.6938165 0.74087393 0.7152438 0.3659495 0.18444856 0.621537 0.63872117
0.37628844 0.17270789 0.4364131 0.60623413 0.50034815 0.42175353 0.44749072 0.73278755
0.45195326 0.73761076 0.1661964 0.26554975 0.48219794 0.3235329 0.15456513 0.3619672
00000000: 7a60 d93e a722 2b3f 1579 3d3e 8f24 d13e
00000010: d8db a53e 97fe 6a3e f7f9 093f 34e0 813e
00000020: 766e 883e f59d 313f eaa9 3d3f 381a 373f
00000030: bc5d bb3e 15e0 3c3e 0d1d 1f3f 3b83 233f
00000040: e1a8 c03e 56da 303e 8a71 df3e 2932 1b3f
00000050: d116 003f 14f0 d73e 811d e53e f797 3b3f
00000060: 6b66 e73e 0fd4 3c3f 642f 2a3e 23f6 873e
00000070: a6e2 f63e 1ba6 a53e 5246 1e3e c453 b93e

conv2.1.bias f4 [32]
-0.1058441 -0.19277288 -0.09434296 -0.15931983 -0.09596719 -0.14430447 -0.19295971 -0.10077775
-0.13122918 -0.1973666 -0.15083608 -0.24601555 -0.13462873 -0.107831135 -0.22413157 -0.14156869
-0.16882467 -0.063488774 -0.18827735 -0.26266047 -0.21301423 -0.09911266 -0.1610619 -0.25237763
-0.20567852 -0.11289273 -0.06001106 -0.03777302 -0.14222635 -0.14904803 -0.10030337 -0.14923875
00000000: cbc4 d8bd 4166 45be e236 c1bd bd24 23be
00000010: 728a c4bd 8dc4 13be 3b97 45be 9164 cebd
00000020: f160 06be 781a 4abe c674 1abe 80eb 7bbe
00000030: 1ddc 09be 92d6 dcbd bf82 65be 62f7 10be
00000040: 60e0 2cbe 6706 82bd c7cb 40be 6f7b 86be
00000050: 6720 5abe 94fb cabd 69ed 24be a437 81be
00000060: 649d 52be 4e34 e7bd 28ce 75bd e2b7 1abd
00000070: c9a3 11be 0ca0 18be da6b cdbd 0bd2 18be

conv2.1.running_mean f4 [32]
-0.21023467 -0.79741585 -0.24550521 -0.2379091 -0.4729822 -0.5385754 -0.6304031 -0.8154288
0.013607878 -1.4163874 -0.21936344 -0.05301713 0.11843671 -0.19880038 0.14725092 -0.869841
-1.8221997 -0.7769984 -0.15005651 -0.20627029 -1.47716 -0.5737029 -0.7236685 -1.0684333
0.2306956 -0.48385066 -0.87353444 -0.61104393 -0.9787863 -0.36397249 -0.0017799174 -0.31689894
00000000: c247 57be 7223 4cbf b865 7bbe 719e 73be
00000010: b92a f2be 14e0 09bf 1962 21bf f1bf 50bf
00000020: 94f3 5e3c 2f4c b5bf cfa0 60be 7d28 59bd
00000030: f28e f23d 5492 4bbe f2c8 163e e6ad 5ebf
00000040: d73d e9bf 5ee9 46bf 6aa8 19be 8538 53be
00000050: 9413 bdbf 31de 12bf 5742 39bf 6cc2 88bf
00000060: 783b 6c3e 46bb f7be f49f 5fbf 606d 1cbf
00000070: bd91 7abf 9a5a babe 1e4c e9ba 9440 a2be

conv2.1.running_var f4 [32]
0.3675781 0.7694345 0.5280278 0.32638204 0.47496152 0.41747558 0.80397195 0.72038597
0.6471305 1.1761439 0.39862397 0.61868906 0.486997 0.5993591 0.86121833 0.5573674
1.1087302 0.6086803 0.655133 0.3983343 1.0832353 0.52085304 0.51899755 0.86989826
0.4261685 0.71467406 0.73134756 0.58632076 0.9117286 0.93763024 0.47506705 0.50132316
00000000: 3233 bc3e a9f9 443f d42c 073f 8c1b a73e
00000010: 282e f33e 5cbf d53e 1bd1 4d3f 376b 383f
00000020: 58aa 253f e28b 963f 7118 cc3e 6862 1e3f
00000030: ac57 f93e 996f 193f ce78 5c3f a1af 0e3f
00000040: dfea 8d3f 79d2 1b3f ccb6 273f 79f2 cb3e
00000050: 74a7 8a3f a056 053f 06dd 043f a7b1 5e3f
00000060: c232 da3e e1f4 363f 9839 3b3f 1e19 163f
00000070: 0c67 693f 8908 703f fd3b f33e b756 003f

fc.weight f4 [10, 2048]
0.038224407 0.010667102 -0.0012117657 -0.053104702 -0.054597456 -0.010972124 -0.023132963 0.07120181
0.057836976 0.02299626 -0.048509598 -0.0656826 -0.031061862 -0.06551888 -0.008753973 -0.0071547413
-0.005972377 0.0080374135 -0.10812027 -0.07716121 -0.06044828 -0.091084816 -0.04687734 -0.04688407
0.03605735 -0.04771205 -0.05380611 -0.01824664 -0.023351122 -0.03400563 -0.009809958 -0.07207275
-0.019416431 -0.084040046 -0.046392065 -0.033147816 0.0067388206 0.000932156 -0.013625717 -0.092227675
-0.07000604 -0.08485201 -0.0071402816 0.014325669 0.039550625 0.06358376 -0.0109531 -0.08870103
-0.08137985 -0.06621076 -0.04077751 -0.029503953 0.005876427 0.03575434 -0.020561537 -0.09437543
-0.068508126 -0.032750238 -0.016701967 0.03256904 -0.006131686 -0.06004284 -0.060040083 -0.076763056
-0.0064768395 0.0022224218 -0.0034443694 -0.019959714 -0.010739004 0.02257867 0.0035814205 -0.015700482
-0.027354967 -0.02620307 0.013239822 0.054715734 0.015721459 -0.005791501 -0.026620924 -0.0666466
-0.016808927 0.022734944 0.054678343 0.062367637 0.052395817 0.032017756 0.017420419 -0.09036162
-0.016006928 0.009730366 0.041572783 0.07694457 0.08581588 0.045109693 0.0005484351 -0.036684975
-0.013221729 -0.004249803 0.017129317 0.025053136 0.055950623 0.047719453 -0.002934372 -0.03972311
0.007667464 -0.012019365 0.006983521 0.060361575 0.018168729 0.05243615 0.0118005695 0.016509626
-0.00600807 -0.05505998 -0.0069118906 0.014048555 0.0047062323 0.00031677904 -0.030840993 -0.050549734
-0.052837152 -0.08136567 -0.08173447 -0.04120186 -0.039722957 -0.03757098 -0.0011986392 0.010391479
0.03457371 0.040542554 0.022923063 0.031171717 0.0037818737 -0.023244176 0.017997453 0.0030550682
0.03935014 0.035653275 0.06467924 0.055757504 -0.0047156103 -0.09095879 -0.023337075 -0.0619086
0.11225972 0.15675914 0.072247654 0.0018719737 0.02551157 -0.032449882 0.018751737 -0.054629747
0.16617274 0.18509659 0.12837441 0.030467087 -0.009253948 -0.0039044148 0.041398957 0.013291016
0.12485045 0.08695584 0.08608636 0.019476255 0.041181374 0.058089152 0.12746161 0.07877208
0.11057955 0.08296445 0.033483874 -0.0063481117 -0.018871132 0.05414074 0.122221306 0.10927505
-0.027235616 -0.032606784 -0.024936656 0.023605982 0.011517835 0.061111864 0.1094146 0.039466664
-0.1972811 -0.08497223 -0.048535068 -0.021377034 -0.011447042 -0.01083948 -0.008831804 -0.06498928
0.04145007 0.057634585 -8.914068e-05 -0.015402364 -0.024853049 -0.0006165222 0.00077078765 0.020837862
0.044314113 0.053302445 0.015697831 0.009740536 0.020662904 0.0072825183 0.037883207 0.046773843
0.03631345 0.00285001 0.0044043735 -0.04028168 -0.056020714 -0.03574052 -0.024802445 0.057199433
-0.0025610838 0.014382331 0.008467257 0.013447711 -0.02736608 0.009141011 0.008882868 0.02981149
-0.022710115 0.03768497 0.017207012 0.041401654 0.011955709 0.048568223 0.024311591 0.06343408
-0.033425692 0.00875932 0.021365715 0.008610973 0.033981174 0.032168835 0.02567111 0.0626362
-0.038065076 -0.0014707854 0.011427043 0.014539373 0.038235012 -0.009077652 0.034150127 0.032012165
-0.056417365 -0.005933306 0.021051472 -0.004493584 -0.01084454 0.01216939 0.017297575 0.05389944
00000000: 3291 1c3d 12c5 2e3c 1cd4 9eba 5184 59bd
00000010: 95a1 5fbd 6cc4 33bc 5781 bdbc 41d2 913d
00000020: 77e6 6c3d a762 bc3c 00b2 46bd 9984 86bd
00000030: 7275 febc c32e 86bd d36c 0fbc 5272 eabb
00000040: eeb3 c3bb 5baf 033c 296e ddbd b206 9ebd
00000050: 9e98 77bd ad8a babd 7402 40bd 8309 40bd
00000060: dfb0 133d b66d 43bd cc63 5cbd fa79 95bc
00000070: da4a bfbc 7d49 0bbd f2b9 20bc e19a 93bd
00000080: 350f 9fbc 301d acbd 9b05 3ebd 01c6 07bd
00000090: 53d1 dc3b ee5b 743a 663e 5fbc dde1 bcbd
000000a0: 545f 8fbd e4c6 adbd 06f9 e9bb 36b6 6a3c
000000b0: d6ff 213d 3438 823d a274 33bc e3a8 b5bd
000000c0: 7baa a6bd 8299 87bd 5106 27bd 46b2 f1bc
000000d0: 0b8f c03b 2573 123d ab70 a8bc e847 c1bd
000000e0: fd4d 8cbd 1d25 06bd 90d2 88bc 1d67 053d
000000f0: 4fec c8bb 7bef 75bd 97ec 75bd f335 9dbd
00000100: ab3b d4bb 0da6 113b eeba 61bb 8e82 a3bc
00000110: a6f2 2fbc e7f6 b83c 44b6 6a3b 4c9e 80bc
00000120: 8617 e0bc d2a7 d6bc d7eb 583c 9b1d 603d
00000130: 4aca 803c a2c6 bdbb 2014 dabc 037e 88bd
00000140: e0b2 89bc a23e ba3c 66f6 5f3d 3575 7f3d
00000150: ff9c 563d 0d25 033d 44b5 8e3c 830f b9bd
00000160: f620 83bc 1d6c 1f3c 3948 2a3d 1d95 9d3d
00000170: 3cc0 af3d f1c4 383d dbc4 0f3a fc42 16bd
00000180: f39f 58bc ee41 8bbb c852 8c3c 3c3c cd3c
00000190: 7b2c 653d 7975 433d 984e 40bb b3b4 22bd
000001a0: 5a3f fb3b dfec 44bc 05d6 e43b b33d 773d
000001b0: 96d6 943c 4ac7 563d 2d57 413c 323f 873c
000001c0: 58df c4bb 9386 61bd 247d e2bb e92b 663c
000001d0: bd36 9a3b 5d15 a639 40a6 fcbc 3d0d 4fbd
000001e0: c56b 58bd 0ba3 a6bd 6764 a7bd 48c3 28bd
000001f0: 8ab4 22bd 07e4 19bd a81b 9dba 0641 2a3c
00000200: 2a9d 0d3d f30f 263d 26c9 bb3c d45b ff3c
00000210: 50d9 773b 926a bebc 656f 933c 8a37 483b
00000220: 9d2d 213d 2b09 123d 8d76 843d fb61 643d
00000230: 6885 9abb 9a48 babd 652d bfbc df93 7dbd
00000240: 6de8 e53d 7885 203e 94f6 933d 045d f53a
00000250: a4fd d03c 2bea 04bd 3e9d 993c 71c3 5fbd
00000260: 3029 2a3e f689 3d3e 9574 033e 1d96 f93c
00000270: df9d 17bc 36e1 7fbb f491 293d 90c2 593c
00000280: 98b1 ff3d e715 b23d 0c4e b03d ab8c 9f3c
00000290: cdad 283d e4ee 6d3d 4c85 023e 4253 a13d
000002a0: 8877 e23d 44e9 a93d 6326 093d d203 d0bb
000002b0: a297 9abc aec2 5d3d 2a4f fa3d 99cb df3d
000002c0: 3a1d dfbc b18e 05bd f547 ccbc 5561 c13c
000002d0: 4db5 3c3c 6f50 7a3d c314 e03d cca7 213d
000002e0: 0f04 4abe ec05 aebd b5cc 46bd e41e afbc
000002f0: 608c 3bbc 1398 31bc 45b3 10bc 1a19 85bd
00000300: 8cc7 293d 3e12 6c3d 0af1 bab8 325a 7cbc
00000310: 9f98 cbbc 1b9e 21ba af0e 4a3a 2ab4 aa3c
00000320: b782 353d aa53 5a3d bd98 803c c596 1f3c
00000330: 4045 a93c 31a2 ee3b 6c2b 1b3d ee95 3f3d
00000340: 6abd 143d 3cc7 3a3b 9052 903b 67fe 24bd
00000350: fa75 65bd a764 12bd 7f2e cbbc f449 6a3d
00000360: dbd7 27bb dea3 6b3c 40ba 0a3c ca53 5c3c
00000370: d42e e0bc 2ec4 153c 7389 113c 3a37 f43c
00000380: 900a babc 8e5b 1a3d b8f5 8c3c c894 293d
00000390: e1e1 433c 79ef 463d 1a29 c73c bae9 813d
000003a0: 61e9 08bd 4083 0f3c 2707 af3c 0a15 0d3c
000003b0: d82f 0b3d 78c3 033d 384c d23c 6847 803d
000003c0: 20ea 1bbd 5ec7 c0ba 7e38 3b3c 8d36 6e3c
000003d0: 519c 1c3d 6fba 14bc 01e1 0b3d 301f 033d
000003e0: e515 67bd 2e6c c2bb 2374 ac3c ea3e 93bb
000003f0: 4cad 31bc 1f62 473c a5b3 8d3c a9c5 5c3d

fc.bias f4 [10]
-0.042575907 -0.017147992 -0.050461598 0.026886217 0.013837797 -0.011162831 -0.002721057 -0.022405108
0.021018555 0.0020616255
00000000: 1364 2ebd f279 8cbc d2b0 4ebd 7c40 dc3c
00000010: edb7 623c 4fe4 36bc c353 32bb eb8a b7bc
00000020: 1b2f ac3c 561c 073b
